model/model.pth (torch, 17216 bytes, 4 tensors)

linear1.weight f4 [256, 11]
0	0x3be57c72	0.0070033604
1	0xbe4b83d7	-0.19874512
2	0x3e176a1f	0.14786576
3	0x3e96461d	0.29350367
4	0x3edc9ccc	0.43088377
5	0x3dcdde92	0.100522175
6	0x3e9efc2d	0.3105177
7	0xbe35eaa7	-0.17765294
8	0xbde8120c	-0.11331567
9	0xbebeb9ed	-0.37251225
10	0xbe774ef0	-0.24151206
11	0xbeae2ae3	-0.34017095
12	0x3ee5f8e3	0.44916448
13	0x3ef83033	0.48474273
14	0xbdc7761f	-0.09739327
15	0x3d163935	0.03667565
16	0xbd5e665b	-0.054296833
17	0xbc75636b	-0.014977316
18	0x3ed51be1	0.41622832
19	0x3ea5cd71	0.32383302
20	0x3eb3fcaa	0.35153705
21	0x3ec0fda4	0.37693512
22	0xbeaa9b60	-0.33321667
23	0x3e8a4643	0.2700673
24	0x3ec86709	0.3914111
25	0x3e2328ab	0.15933482
26	0xbdba2f8f	-0.09091102
27	0xbe5c4413	-0.21510343
28	0x3e33c9fd	0.17557521
29	0x3db3a9f3	0.087726496
30	0x3bf6a949	0.0075275046
31	0xbd4bff91	-0.049804274
32	0xbd6ecb94	-0.058299616
33	0xbdaf0cae	-0.0854734
34	0x3e9297af	0.2863135
35	0xbd7a5ddf	-0.06112468
36	0xbae04797	-0.0017111179
37	0xbca7898a	-0.020451326
38	0xbeb3f8a9	-0.3515065
39	0xbeb4f7c9	-0.35345295
40	0xbda2c9fc	-0.07948682
41	0x3d7a939b	0.061175924
42	0x3c85f47f	0.016351936
43	0xbd054d01	-0.03254414
44	0x3e90901f	0.28234956
45	0xbd8e07e4	-0.06935099
46	0xbd935b25	-0.07195119
47	0x3ecc1ba1	0.3986483
48	0x3e8ff114	0.28113616
49	0xbe668322	-0.2251096
50	0xbec5c966	-0.38630217
51	0xbf02822a	-0.50979865
52	0xbec3913a	-0.38196737
53	0x3db9e6a3	0.090771936
54	0x3e913ed7	0.28368255
55	0x3d2c9183	0.04213096
56	0x3dfe5198	0.124179065
57	0x3c84b1b9	0.016198026
58	0xbeb240d6	-0.3481509
59	0x3d47ad46	0.04874923
60	0x3f0147e5	0.5050033
61	0xbd9ccd48	-0.07656342
62	0x3ee8c68c	0.4546398
63	0x3dadd56c	0.084879726
64	0xbed39275	-0.41322675
65	0x3e0b0376	0.13575539
66	0xbe5ea701	-0.21743394
67	0x3dc07bb1	0.09398592
68	0x3e1ee5b5	0.15517314
69	0xbec25f1c	-0.37963188
70	0x3e871df3	0.26390037
71	0xbeca68ab	-0.3953298
72	0xbe39d9a7	-0.18149434
73	0xbf24286c	-0.6412418
74	0xbe848a5a	-0.25886804
75	0x3ee76a27	0.45198175
76	0xbe5bffb2	-0.21484259
77	0x3e9aad7e	0.3021049
78	0xbe63dd84	-0.2225247
79	0x3f09be2e	0.53805816
80	0xbe85081d	-0.25982752
81	0x3e11cae5	0.14237554
82	0x3d644e33	0.05573864
83	0xbe26d5c0	-0.16292477
84	0x3e879464	0.264804
85	0xbe29695f	-0.16544102
86	0x3d30e4ab	0.043186825
87	0x3dda88d0	0.10670626
88	0xbe2e5b78	-0.1702708
89	0xbcb05bf7	-0.021528227
90	0x3e6d95af	0.23201631
91	0xbc41202e	-0.011787457
92	0xbe2aafa1	-0.1666856
93	0xbb082b08	-0.0020777602
94	0xbd8a2af7	-0.06746476
95	0xbd97c07a	-0.07409759
96	0xbcb39b62	-0.021924678
97	0xbe14bec0	-0.1452589
98	0xbc84f1ff	-0.016228674
99	0x3bd35400	0.0064492226
100	0xbea8a524	-0.32938492
101	0xbe5ff46e	-0.21870586
102	0xbd4e1ea5	-0.050322194
103	0xbe3b9759	-0.18319453
104	0xbf1115ac	-0.56673694
105	0x3e8a8921	0.27057746
106	0xbf12cb28	-0.5734124
107	0xbf1b26e1	-0.606062
108	0xbeed3464	-0.46329033
109	0x3eb65626	0.356126
110	0xbd5ad2fd	-0.05342387
111	0x3db79a4f	0.08964979
112	0x3e04b8fc	0.12961191
113	0xbd0cc14a	-0.034364022
114	0xbd5155b7	-0.051107135
115	0xbe19ffda	-0.15039006
116	0x3ec711bd	0.3888072
117	0xbe362783	-0.1778851
118	0x3dd6fe22	0.10497691
119	0xbe41b946	-0.18918332
120	0xbebc5526	-0.36783713
121	0x3e901a7f	0.28145215
122	0x3e0577bb	0.13033955
123	0x3bacb5a0	0.005270675
124	0xbea735a1	-0.32658103
125	0x3eb5a4bc	0.35477245
126	0x3d0a080d	0.033699084
127	0xbe925792	-0.28582436
128	0x3eb33ca0	0.3500719
129	0xbec7fd9b	-0.39060673
130	0xbd00dd4a	-0.031461038
131	0x3e736752	0.23769882
132	0xbe0b8929	-0.13626541
133	0xbe6e77a5	-0.23287828
134	0x3ebc1b8e	0.36739773
135	0x3d13afb5	0.03605624
136	0xbe7aba2c	-0.24485081
137	0xbe7dd8e1	-0.24789764
138	0xbe3da53b	-0.18520062
139	0x3dd0638b	0.10175236
140	0xbe14a750	-0.1451695
141	0xbde07cc9	-0.10961301
142	0xbe13af80	-0.14422417
143	0x3ed5f767	0.41790316
144	0x3d4cac56	0.04996904
145	0x3d99038c	0.0747138
146	0xbdc882df	-0.09790587
147	0xbe6a37ff	-0.22872923
148	0xbdfa3f64	-0.12219122
149	0xbdfbab36	-0.12288515
150	0x3ee26681	0.4421883
151	0x3ee9133e	0.45522493
152	0x3ee99615	0.45622316
153	0x3ea3cddc	0.31992996
154	0x3e406269	0.1878754
155	0xbe66fa2a	-0.22556368
156	0x3e1151a6	0.14191303
157	0xbd4fac8d	-0.050701667
158	0xbdb06b84	-0.08614257
159	0x3e381c51	0.17979552
160	0x3ecee485	0.40408722
161	0x3b198e02	0.002343059
162	0x3e405017	0.18780552
163	0xbe8d7558	-0.2762859
164	0xbe92ee7a	-0.28697568
165	0x3ee9d216	0.45668095
166	0x3ccc3407	0.024927152
167	0x3eb9cb3d	0.3628787
168	0xbeccf313	-0.400292
169	0xbdad7a39	-0.08470578
170	0xbe0e1a5a	-0.1387724
171	0xbbfd1027	-0.007722873
172	0x3ef1d64b	0.47233805
173	0x3dd157fd	0.102218606
174	0x3e8e406e	0.2778353
175	0x3ed85a23	0.4225627
176	0x3e230fd5	0.15924008
177	0x3ef29bdf	0.47384545
178	0xbf15a64f	-0.5845689
179	0xbbfa4911	-0.0076381047
180	0x3ddb4b0e	0.10707675
181	0x3d9b70a0	0.07589841
182	0xbd445c07	-0.047939327
183	0x3d8afd4c	0.06786594
184	0xbc228a8a	-0.009920726
185	0x3d9de883	0.07710364
186	0x3da96f68	0.08273202
187	0x3e4209eb	0.18949096
188	0x3e7dd020	0.24786425
189	0x3b4c5013	0.0031175658
190	0x3cc5d2ec	0.024148427
191	0xbeb3940e	-0.35073894
192	0xbe629d4b	-0.22130315
193	0x3d245b89	0.040126357
194	0x3d5bb8d9	0.05364308
195	0x3eb7d23f	0.35902593
196	0x3eac37e5	0.33636394
197	0xba79d82c	-0.00095308083
198	0x3c6b9f8a	0.014381299
199	0x3ef2b547	0.4740393
200	0x3eda9dad	0.42698422
201	0x3d928f40	0.07156229
202	0x3d878e54	0.06618944
203	0x3e4559c6	0.19272527
204	0xbe45a82b	-0.19302432
205	0xbe1d0a36	-0.15335926
206	0xbe80be1d	-0.25145045
207	0xbba6ebad	-0.0050940127
208	0xbe96b8c8	-0.29437852
209	0x3e2e1d51	0.17003371
210	0x3ed80a6a	0.42195445
211	0x3ec77932	0.38959652
212	0xbe4af313	-0.19819288
213	0xbe19ac09	-0.15007032
214	0xbdd00633	-0.101574324
215	0xbe3dc82d	-0.18533392
216	0x3eaf564d	0.3424553
217	0x3e8d6b21	0.27620795
218	0x3e6f63ff	0.23377989
219	0x3e93458e	0.28764004
220	0xbe0ed5b1	-0.13948704
221	0x3ee3f5c5	0.44523445
222	0xbdc6cc97	-0.09706991
223	0xbe5f1bff	-0.21788023
224	0x3c72b4a4	0.014813576
225	0x3e4bdf5e	0.19909427
226	0xbea5e1a5	-0.32398716
227	0x3db20e55	0.0869414
228	0xbe867129	-0.2625821
229	0xbe6275a1	-0.22115184
230	0x3dc7e0be	0.09759663
231	0xbea8b0a8	-0.32947278
232	0x3d3043d6	0.043033443
233	0x3e7f5f4b	0.24938695
234	0x3e3bea37	0.18351065
235	0x3e91bb95	0.28463426
236	0x3eacae88	0.33726907
237	0x3e806564	0.25077355
238	0xbe8c6c9d	-0.27426615
239	0xbe97916a	-0.2960313
240	0xbdcc1892	-0.09965624
241	0xbeaa941a	-0.33316118
242	0xbf0935f4	-0.5359795
243	0x3bbb4cf0	0.005715959
244	0xbb8cfba0	-0.004302457
245	0xbf1ecb2e	-0.6202878
246	0xbed916cc	-0.42400205
247	0x3d8705b1	0.065928824
248	0x3e75258a	0.23940101
249	0xbf0dc506	-0.5537876
250	0xbee1c4b4	-0.44095385
251	0x3e977a6e	0.29585594
252	0x3de52f6f	0.11190688
253	0xbd3a7a15	-0.045526583
254	0xbebc3196	-0.3675658
255	0x3e012b6f	0.12614225

linear1.bias f4 [256]
0	0x3f8373f2	1.0269759
1	0xbea53629	-0.32267883
2	0x3e3f4dee	0.18682072
3	0xbec49126	-0.3839199
4	0x3da241a8	0.07922679
5	0xbdb14c95	-0.08657185
6	0xbe451d73	-0.19249515
7	0xbde1cdc8	-0.11025578
8	0xbcc19795	-0.02363185
9	0x3e04fa32	0.12986067
10	0xbdfe9a33	-0.12431755
11	0xbbd6c949	-0.006554757
12	0x3df68348	0.12036759
13	0xbeb68426	-0.35647696
14	0xbe5dc6d2	-0.21657875
15	0xbe51d812	-0.2049258
16	0xbdc5e9f6	-0.09663765
17	0xbe54f807	-0.2079774
18	0xbe1ac242	-0.15113166
19	0xbe208a27	-0.15677701
20	0x3ca7bd9e	0.020476159
21	0x3f42f56e	0.76155746
22	0x3e4df471	0.20112778
23	0x3e1179ae	0.14206573
24	0xbe1192bb	-0.1421613
25	0xbe8cec1c	-0.27523887
26	0x3dcab401	0.09897614
27	0x3e92da97	0.28682396
28	0xbdb9d94b	-0.090746485
29	0xbe23abec	-0.15983552
30	0xbf0fbd2c	-0.5614803
31	0x3dca07dd	0.09864781
32	0xbe9bd537	-0.30436108
33	0xbe647e32	-0.22313765
34	0xbd3a5dd8	-0.045499653
35	0xbc3f00c4	-0.011657897
36	0xbdb6d7c6	-0.08927874
37	0xbe99d96c	-0.30048692
38	0xbe22fc67	-0.15916596
39	0xbe622e21	-0.2208791
40	0x3d430d9d	0.047620405
41	0xbd42fcfd	-0.04760455
42	0xbc2b95a8	-0.010472693
43	0xbe87f49e	-0.26553816
44	0xbe8e54cd	-0.27799073
45	0xbe1a8930	-0.15091395
46	0x3efc4f6f	0.49279353
47	0x3e5dbe4b	0.21654622
48	0xbe5d3ad7	-0.21604477
49	0xbe8efc05	-0.2792665
50	0x3f070e5a	0.52756274
51	0xbe74bdfb	-0.23900597
52	0xbe6a77b3	-0.22897224
53	0xbdb12324	-0.08649281
54	0xbe3dcfb3	-0.18536262
55	0x3d2c1364	0.04201068
56	0x3ed781e7	0.42091295
57	0xbe719b96	-0.23594508
58	0xbdb80b2e	-0.08986507
59	0xbb376532	-0.00279839
60	0x3d643efe	0.055724137
61	0x3e9726be	0.29521745
62	0x3d0ee255	0.034883816
63	0x3d5c4e75	0.05378576
64	0x3eddf008	0.43347192
65	0xbbef46a4	-0.007302122
66	0xbdddacf9	-0.108240075
67	0x3e5ef65b	0.21773665
68	0x3d81b52a	0.063333824
69	0xbe06d098	-0.1316551
70	0xbded1382	-0.115759864
71	0x3e08ff23	0.13378577
72	0x3dd055e1	0.1017263
73	0xbe8f8615	-0.28031984
74	0xbe868a5f	-0.26277444
75	0xbe8e9ab8	-0.27852416
76	0xbd878a72	-0.06618203
77	0xbd336624	-0.04379858
78	0xbed24ce2	-0.41074282
79	0x3e9829c1	0.29719356
80	0xbbd0b8d9	-0.006369692
81	0xbdd780ba	-0.105225995
82	0xbdf3acab	-0.11898168
83	0xbe5ff6ff	-0.21871565
84	0x3e16ec2f	0.14738534
85	0xbdf52ea6	-0.11971788
86	0xbdfd572b	-0.123701416
87	0xbe8ed4ba	-0.27896672
88	0x3e31091b	0.1728863
89	0x3d45c01e	0.04827892
90	0x3ed7ee6b	0.42174086
91	0xbed5e0f9	-0.41773203
92	0xbcbf059c	-0.023318104
93	0x3d07502c	0.033035442
94	0x3e442b8a	0.19157234
95	0xbe05f592	-0.13081959
96	0xbeabe250	-0.335711
97	0xbe3ff1c6	-0.18744573
98	0xbe8f97a4	-0.2804538
99	0x3e98fa7e	0.2987861
100	0x3eb00d62	0.3438521
101	0x3cfefacf	0.031125454
102	0xbd0aa976	-0.033853017
103	0x3e600a19	0.21878852
104	0x3dba459b	0.090953074
105	0xb9bfcefb	-0.0003658457
106	0xbc978a5f	-0.018498598
107	0xbe08e6b1	-0.13369252
108	0x3ecfd2e0	0.40590572
109	0xbe52fcc0	-0.20604229
110	0xbe8cd72a	-0.27507907
111	0xbe4629da	-0.19351903
112	0xbe5d8307	-0.21632014
113	0xbd37f3f6	-0.044910394
114	0x3f11240a	0.56695616
115	0xbdc1286e	-0.094315395
116	0x3f098fe8	0.5373521
117	0x3cb7128e	0.022347715
118	0xbee74ad9	-0.45174292
119	0x3d9dea2e	0.07710682
120	0x3e34bfd8	0.17651308
121	0xbea2ea07	-0.31819174
122	0xbe89ad8f	-0.26890227
123	0xbe56d8d1	-0.20981146
124	0x3ebb46a4	0.36577332
125	0x3d2903bb	0.041263323
126	0xbe627f88	-0.22118962
127	0xbdc14ec0	-0.094388485
128	0xbe2b12ff	-0.16706465
129	0x3e846521	0.25858405
130	0xbde3aec1	-0.11117316
131	0x3fc711b8	1.5552282
132	0x3c38e665	0.011285399
133	0x3dd4120f	0.10355007
134	0x3ec3e7ff	0.38262936
135	0xbe3c99f3	-0.18418102
136	0xbdf10125	-0.117677964
137	0x3ef59c92	0.47971016
138	0xbed37f91	-0.41308263
139	0xbe1fb270	-0.15595412
140	0xbeb61656	-0.35563916
141	0xbe31d394	-0.17365867
142	0xbdbede42	-0.09319736
143	0x3ef11604	0.4708711
144	0x3d5b0860	0.053474784
145	0x3e183ad4	0.14866191
146	0xbeb9a365	-0.36257473
147	0x3d8a73da	0.06760378
148	0x3e576fbc	0.21038717
149	0xbe0115c2	-0.12605956
150	0x3de3f18b	0.11130055
151	0xbd5fe0d4	-0.054657772
152	0xbe456cbb	-0.19279759
153	0xbedea0d3	-0.43482074
154	0x3e1f181a	0.15536538
155	0xbd3ad267	-0.04561081
156	0x3e988562	0.29789263
157	0xbbdaee5e	-0.0066812476
158	0x3d15e7fd	0.036598194
159	0x3d92f90e	0.0717641
160	0xbd950cb0	-0.072778106
161	0x3ed8cad3	0.42342243
162	0xbd5b69de	-0.05356776
163	0xbbdd58c5	-0.006754967
164	0xbea263de	-0.31716818
165	0xbd168a63	-0.03675307
166	0x3c3cb2f9	0.01151728
167	0xbea0fb37	-0.31441662
168	0xbe360158	-0.1777395
169	0x3b5008b8	0.0031743478
170	0x3e07a625	0.13246973
171	0x3db3e16c	0.0878323
172	0xbebf0ef7	-0.37316105
173	0xbd07bf2d	-0.033141304
174	0x3f0cace6	0.5495132
175	0x3ebbc6e4	0.3667518
176	0x3e215884	0.15756422
177	0xbea22682	-0.31670004
178	0xbe24c23c	-0.1608972
179	0xbd0b5784	-0.03401901
180	0x3edc3162	0.43006426
181	0xbd0a1703	-0.033713352
182	0xbe8fee4a	-0.28111488
183	0xbdbac6ac	-0.09119925
184	0x3cb262db	0.021775654
185	0xbe277685	-0.16353805
186	0xbe8f266d	-0.27959004
187	0x3de355f6	0.1110038
188	0xbe61f75c	-0.22067016
189	0x3d335733	0.04378433
190	0x3dba764d	0.09104595
191	0xbeb1b3b6	-0.3470742
192	0xbe8c5f84	-0.27416623
193	0xbd73d04a	-0.05952481
194	0x3e53a5f9	0.20668782
195	0xbe145dd4	-0.14488918
196	0xbe3b65c7	-0.18300544
197	0xbe27c1b8	-0.16382492
198	0x3f30c26b	0.6904666
199	0x3c96d5b9	0.018412458
200	0xbe99e8c9	-0.30060413
201	0xbe9d36d2	-0.30705887
202	0x3b920d31	0.004457139
203	0xbe721fa8	-0.23644888
204	0xbe42e776	-0.19033608
205	0xbe06d052	-0.13165405
206	0xbdc524ff	-0.09626197
207	0xbe63cb92	-0.22245625
208	0xbe84989e	-0.25897688
209	0xbe49b6cb	-0.19698636
210	0xbdbddc1d	-0.09270499
211	0xbdf3dfc4	-0.11907914
212	0x3c69096b	0.014223437
213	0x3d22df58	0.03976378
214	0x3e798b73	0.24369602
215	0xbe357e68	-0.17724001
216	0x3e5cd52e	0.21565697
217	0xbe8e81ba	-0.2783335
218	0xbcadaa7c	-0.021199457
219	0xbd1df4f2	-0.038563676
220	0xbe7fbae4	-0.24973637
221	0xbd2b41b8	-0.04181072
222	0xbc90a26f	-0.01765558
223	0x3c22356d	0.009900433
224	0xbd67cf48	-0.056594163
225	0xbee4a0c3	-0.446539
226	0xbda17120	-0.07882905
227	0x3e57357a	0.21016493
228	0xbb909246	-0.0044119684
229	0xbe2eddf3	-0.17076854
230	0xbe43f6ba	-0.19137087
231	0xbe9c70f2	-0.3055492
232	0xbe6bac90	-0.23015046
233	0xbdcb2383	-0.09918883
234	0xbd666e53	-0.056257557
235	0xbe30182c	-0.17196721
236	0xbe5eabb3	-0.21745186
237	0x3e58bca8	0.21165717
238	0xbe6dda3f	-0.23227786
239	0xbe0b1fde	-0.13586375
240	0x3eb80064	0.35937798
241	0xbea3f5c8	-0.32023454
242	0xbe1d009c	-0.15332264
243	0xbe029b41	-0.12754537
244	0xbe985c6e	-0.29758018
245	0xbcf8efdd	-0.030387813
246	0xbd67b923	-0.056573045
247	0xbe15704d	-0.1459362
248	0xbece2c76	-0.40268296
249	0x3d9579fe	0.07298659
250	0xbe2c0458	-0.16798532
251	0x3e1f38b8	0.1554898
252	0xbe290bf8	-0.16508472
253	0xbe39efb2	-0.18157843
254	0xbe2730bc	-0.16327184
255	0xbe90d48a	-0.28287154

linear2.weight f4 [3, 256]
0	0x3e9ff610	0.31242418
1	0xbe0607a3	-0.1308885
2	0x3dcc076b	0.09962352
3	0x3d83f7ed	0.064437725
4	0xbebfded8	-0.37474704
5	0xbee4eee6	-0.44713515
6	0xbe525d6b	-0.20543449
7	0xbda836ec	-0.082136005
8	0x3b90a1d7	0.004413824
9	0x3ed8ca63	0.4234191
10	0x3b0ad5b7	0.0021184513
11	0xbee02253	-0.43776187
12	0x3d77ddec	0.060514376
13	0xbe805739	-0.25066546
14	0xbcb66e05	-0.022269258
15	0xbe0df608	-0.13863385
16	0x3c9de6cf	0.019275097
17	0xbddedbb2	-0.10881747
18	0xbd640eed	-0.055678297
19	0xbe00917d	-0.125555
20	0xbdbfe154	-0.0936915
21	0x3eb6b360	0.35683727
22	0x3ebf51f9	0.37367228
23	0xbe52a3b0	-0.20570254
24	0xbf10d16c	-0.5656955
25	0xbd236ab0	-0.039896667
26	0x3c30698b	0.010767351
27	0x3e80f2ed	0.25185338
28	0xbef4cf05	-0.47814193
29	0xbeaa458a	-0.3325618
30	0xbe6bf530	-0.2304275
31	0x3e7f668c	0.24941462
32	0xbd4ee80a	-0.05051426
33	0xbe9e67da	-0.30938607
34	0x3ddd6948	0.108110964
35	0xbd648ba5	-0.055797238
36	0xbdb44eb9	-0.08804078
37	0xbe0fcb72	-0.14042452
38	0x3e7a8c4c	0.24467582
39	0xbe533e48	-0.20629227
40	0xbe306a2c	-0.17228001
41	0xbc18b605	-0.009320741
42	0x3e90079c	0.28130805
43	0xbe928933	-0.286203
44	0xbe2ff207	-0.1718217
45	0xbe2ea2e6	-0.17054328
46	0x3e5aea40	0.21378422
47	0x3f0ecbda	0.557798
48	0xbdee9277	-0.1164903
49	0x3e023f13	0.12719373
50	0x3eaed2c1	0.34145167
51	0xbe86ca3e	-0.26326174
52	0xbc583518	-0.013196252
53	0xbeb2a30d	-0.34890023
54	0x3d993e06	0.07482533
55	0x3eaa1c0d	0.33224526
56	0x3e73db6c	0.23814172
57	0x3e145efe	0.14489362
58	0xbe1bbcc6	-0.1520873
59	0x3eb34f62	0.35021502
60	0x3e92a392	0.2864042
61	0x3df3bd60	0.11901355
62	0x3e9e5bbd	0.30929366
63	0xbdeaaef3	-0.1145915
64	0x3e1a0580	0.1504116
65	0x3d09bd7d	0.033627976
66	0xbd729d3c	-0.05923198
67	0x3e2a4edb	0.16631643
68	0x3cb4c8cb	0.022068402
69	0xbc11e1e3	-0.008903953
70	0x3c7384f8	0.014863245
71	0x3e3fc616	0.18727908
72	0x3de7296c	0.112871975
73	0x3bedc710	0.007256396
74	0xbdd9267f	-0.10603046
75	0xbd800382	-0.06250669
76	0xbf4ccd74	-0.80000997
77	0x3dd7c09d	0.10534785
78	0xbe36a227	-0.17835294
79	0x3dd81495	0.10550801
80	0x3e9b80e1	0.30371764
81	0xbe2352fa	-0.15949622
82	0xbf2b94f9	-0.6702419
83	0xbf009dd2	-0.50240815
84	0x3e6ea7ac	0.23306149
85	0xbe130dbd	-0.1436071
86	0xbd070414	-0.032962874
87	0xbe7f7f11	-0.24950816
88	0xbe0a242c	-0.13490361
89	0x3e7fa941	0.24966909
90	0x3e63f342	0.22260764
91	0x3db2846f	0.08716666
92	0x3e32eca4	0.17473084
93	0xbc24f22d	-0.010067505
94	0x3e873229	0.26405457
95	0xbe1c4470	-0.15260482
96	0x3b727af6	0.003699956
97	0xbe5a9697	-0.21346508
98	0xbeb3fcf5	-0.35153928
99	0x3ea369cc	0.31916654
100	0x3e87ce2a	0.26524478
101	0x3cee2b96	0.029073518
102	0xbc30827d	-0.010773298
103	0x3e30a460	0.17250204
104	0x3e4bbed8	0.1989702
105	0xbe188ac1	-0.1489668
106	0xbf38b7d1	-0.7215548
107	0x3ca94628	0.020663336
108	0x3ef77eec	0.4833902
109	0xbe962f5a	-0.29333
110	0xbe2d26d1	-0.16909339
111	0xbd7ce392	-0.061740465
112	0x3e0b32a7	0.13593541
113	0xbeb9e174	-0.3630482
114	0x3ede14ef	0.43375346
115	0xbd386a49	-0.045023236
116	0x3e6b461d	0.22975965
117	0xbcdc0b21	-0.026860775
118	0xbe67aae0	-0.22623777
119	0x3e7bcb66	0.24589309
120	0xbeebf2b1	-0.46083596
121	0xbd799abe	-0.06093859
122	0xbb0bbe66	-0.0021323203
123	0xbca7affc	-0.020469658
124	0x3ef9d998	0.48798823
125	0x3edae0ed	0.4274973
126	0xbe3fe02a	-0.18737856
127	0xbd1d7fef	-0.038452085
128	0xbe37dca1	-0.17955257
129	0x3d9830ea	0.074312046
130	0xbccddb8a	-0.025129098
131	0x3ec3d30c	0.38246953
132	0x3e7a33c0	0.24433804
133	0x3e89d221	0.26918128
134	0x3ebeda5f	0.3727598
135	0xbe900e4b	-0.28135905
136	0xbd5f9fd8	-0.0545958
137	0x3e7db127	0.2477461
138	0xbe257716	-0.16158709
139	0x3e86a8ba	0.26300603
140	0xbd6beb1a	-0.057597257
141	0xbe2d5a72	-0.16929033
142	0x3ba9b859	0.0051794467
143	0x3e1cdf4a	0.15319553
144	0x3cc3d5dd	0.023905689
145	0x3e8a8ab4	0.27058947
146	0xbd96669b	-0.07343789
147	0x3d37d210	0.044878066
148	0x3e681f86	0.22668275
149	0x3cefcb9d	0.029271895
150	0x3e240505	0.1601754
151	0xb9096af7	-0.00013105186
152	0xbe77d9be	-0.24204156
153	0xbd35b152	-0.04435856
154	0xbf271c64	-0.65277696
155	0xbede643f	-0.43435857
156	0x3e63d65c	0.2224974
157	0xbe52e010	-0.20593286
158	0x3e880b4d	0.26571122
159	0xbece3d65	-0.40281215
160	0xbd7a5ed6	-0.0611256
161	0x3e1fac72	0.15593126
162	0xbedf710a	-0.4364093
163	0xbecbda3a	-0.3981493
164	0xbccb1cbd	-0.024793977
165	0x3ded8bc9	0.115989275
166	0xbe580cb4	-0.21098596
167	0xbecbf900	-0.3983841
168	0x3e0ed0d0	0.13946843
169	0x3e04d245	0.12970836
170	0x3eac3484	0.33633816
171	0x3e25531f	0.1614499
172	0xbc50482f	-0.012712522
173	0xbe699796	-0.22811732
174	0x3e2cfe85	0.16893966
175	0x3ee79caf	0.45236728
176	0x3ebb9288	0.36635232
177	0xbd8c9b40	-0.06865549
178	0xbd0fe99b	-0.035134893
179	0xbd2ae38d	-0.041720916
180	0x3e8cf02a	0.2752698
181	0xbe10daed	-0.14146014
182	0xbec76763	-0.38946065
183	0xbed6121e	-0.41810697
184	0x3dc5fdbd	0.09667537
185	0xbb6b5f6e	-0.0035915035
186	0x3d85c0de	0.06530927
187	0x3e95e678	0.29277396
188	0xbe8f0cba	-0.27939397
189	0x3bacc4ce	0.0052724844
190	0x3eaad02b	0.33361945
191	0xbe7ac83d	-0.24490447
192	0xbe1f230d	-0.15540715
193	0x3e851d65	0.2599899
194	0x3ea9806b	0.33105788
195	0xbe26ee95	-0.1630195
196	0xbe553dd1	-0.20824362
197	0xbd82e806	-0.06391911
198	0x3e638f02	0.22222522
199	0x3de471c9	0.11154515
200	0xbec8a0ce	-0.39185184
201	0x3e19a65a	0.15004864
202	0x3e96f11c	0.29480827
203	0xbe6efb2f	-0.23338006
204	0x3d9be154	0.07611337
205	0xbdebcc82	-0.11513616
206	0x3de576ca	0.11204298
207	0xbd80673a	-0.06269689
208	0xbec21f1c	-0.3791436
209	0xbe8a03d4	-0.26956046
210	0xbdbbee33	-0.09176292
211	0xbdd1d9ab	-0.10246595
212	0x3ec18cc1	0.378027
213	0x3e82385d	0.25433627
214	0x3db13edc	0.086545676
215	0xbdc872f9	-0.09787554
216	0x3e9134d9	0.28360632
217	0x3dd84a57	0.10561054
218	0x3e587ffd	0.21142574
219	0x3df869ce	0.12129556
220	0xbe958ae6	-0.29207534
221	0xbe1cf333	-0.15327148
222	0xbdabe369	-0.083929844
223	0xbe9e77f0	-0.3095088
224	0x3edc3a6d	0.43013325
225	0xbe3a9173	-0.18219547
226	0xbcee6117	-0.02909903
227	0x3d429465	0.0475048
228	0xbd085af3	-0.03328986
229	0x3db75bb7	0.0895304
230	0xbc815c9e	-0.015791234
231	0xbe234dea	-0.1594769
232	0xbe92cbb8	-0.2867105
233	0xbd6e8b03	-0.05823804
234	0x3e53d0da	0.2068514
235	0x3e435483	0.19075207
236	0xbe979a81	-0.29610065
237	0x3f08abd3	0.5338718
238	0xbdc447e6	-0.09584026
239	0xbe905bb4	-0.28194964
240	0x3e9b5ec5	0.3034574
241	0xbbfbed3a	-0.0076881917
242	0xbdabeda3	-0.08394935
243	0xbf08fc18	-0.53509665
244	0x3d4b96cb	0.049704354
245	0x3ed12f83	0.4085656
246	0xbd140ca1	-0.036144856
247	0xbe3c3cb1	-0.18382527
248	0xbd5e60db	-0.054291587
249	0x3ebd802e	0.37011856
250	0xbd94e208	-0.072696745
251	0x3dfa5c45	0.1222463
252	0xbef3c30d	-0.4760975
253	0xbd0a4b4a	-0.033763207
254	0xbec74dfc	-0.38926685
255	0x3cbe1258	0.023202106

linear2.bias f4 [3]
0	0x3e5da5dd	0.21645303
1	0x3c0051f6	0.007832041
2	0x3c671431	0.014103935
